…
[{amdn_Gaussian-tied-unco-new.py:135} INFO - loaded split train...
[{amdn_Gaussian-tied-unco-new.py:135} INFO - loaded split dev...
[{amdn_Gaussian-tied-unco-new.py:135} INFO - loaded split test...
[{amdn_Gaussian-tied-unco-new.py:152} INFO - Mean and std in train = 0.29100558161735535 and 20.42693328857422
[{amdn_Gaussian-tied-unco-new.py:172} INFO - Mean and std out train = 0.5728792548179626 and 28.142475128173828
[{amdn_Gaussian-tied-unco-new.py:530} INFO - loaded the dataset and formed torch dataloaders.
[{amdn_Gaussian-tied-unco-new.py:196} INFO - Model(
  (rnn): AttentiveLayer(
    (mark_embedding): Embedding(190040, 64)
    (tblocks): Sequential(
      (0): TransformerBlock(
        (attention): SelfAttentionWide(
          (tokeys): Linear(in_features=192, out_features=192, bias=False)
          (toqueries): Linear(in_features=192, out_features=192, bias=False)
          (tovalues): Linear(in_features=192, out_features=192, bias=False)
          (unifyheads): Linear(in_features=192, out_features=192, bias=True)
        )
        (norm1): LayerNorm((192,), eps=1e-05, elementwise_affine=True)
        (norm2): LayerNorm((192,), eps=1e-05, elementwise_affine=True)
        (ff): Sequential(
          (0): Linear(in_features=192, out_features=384, bias=True)
          (1): ReLU()
          (2): Linear(in_features=384, out_features=192, bias=True)
        )
        (do): Dropout(p=0.5, inplace=False)
      )
    )
  )
  (mark_layer): Sequential(
    (0): Linear(in_features=192, out_features=192, bias=True)
    (1): ReLU()
    (2): Linear(in_features=192, out_features=190040, bias=True)
  )
  (decoder): TransformedDistribution(
    (transforms): ModuleList(
      (0): FixedAffine()
      (1): Exp()
    )
    (base_dist): NormalMixtureDistribution(
      (hypernet): Hypernet(
        (activation): Tanh()
        (linear_rnn): Linear(in_features=192, out_features=24, bias=False)
        (linear_layers): ModuleList()
      )
    )
  )
)
[{amdn_Gaussian-tied-unco-new.py:532} INFO - model created from config hyperparameters.
[{amdn_Gaussian-tied-unco-new.py:527} INFO - Logging any runs of this program - appended to same file.
[{amdn_Gaussian-tied-unco-new.py:528} INFO - Arguments = Namespace(data_dir='../../kdd_data/', data_prefi
…
[{amdn_Gaussian-tied-unco-new.py:135} INFO - loaded split train...
[{amdn_Gaussian-tied-unco-new.py:135} INFO - loaded split dev...
[{amdn_Gaussian-tied-unco-new.py:135} INFO - loaded split test...
[{amdn_Gaussian-tied-unco-new.py:152} INFO - Mean and std in train = 0.29100558161735535 and 20.42693328857422
[{amdn_Gaussian-tied-unco-new.py:173} INFO - Mean and std out train = 0.5728792548179626 and 28.142475128173828
[{amdn_Gaussian-tied-unco-new.py:532} INFO - loaded the dataset and formed torch dataloaders.
[{amdn_Gaussian-tied-unco-new.py:197} INFO - Model(
  (rnn): AttentiveLayer(
    (mark_embedding): Embedding(190040, 64)
    (tblocks): Sequential(
      (0): TransformerBlock(
        (attention): SelfAttentionWide(
          (tokeys): Linear(in_features=193, out_features=193, bias=False)
          (toqueries): Linear(in_features=193, out_features=193, bias=False)
          (tovalues): Linear(in_features=193, out_features=193, bias=False)
          (unifyheads): Linear(in_features=193, out_features=193, bias=True)
        )
        (norm1): LayerNorm((193,), eps=1e-05, elementwise_affine=True)
        (norm2): LayerNorm((193,), eps=1e-05, elementwise_affine=True)
        (ff): Sequential(
          (0): Linear(in_features=193, out_features=386, bias=True)
          (1): ReLU()
          (2): Linear(in_features=386, out_features=193, bias=True)
        )
        (do): Dropout(p=0.5, inplace=False)
      )
    )
  )
  (mark_layer): Sequential(
    (0): Linear(in_features=193, out_features=193, bias=True)
    (1): ReLU()
    (2): Linear(in_features=193, out_features=190040, bias=True)
  )
  (decoder): TransformedDistribution(
    (transforms): ModuleList(
      (0): FixedAffine()
      (1): Exp()
    )
    (base_dist): NormalMixtureDistribution(
      (hypernet): Hypernet(
        (activation): Tanh()
        (linear_rnn): Linear(in_features=193, out_features=24, bias=False)
        (linear_layers): ModuleList()
      )
    )
  )
)
[{amdn_Gaussian-tied-unco-new.py:534} INFO - model created from config hyperparameters.
[{amdn_Gaussian-tied-unco-new.py:529} INFO - Logging any runs of this program - appended to same file.
[{amdn_Gaussian-tied-unco-new.py:530} INFO - Arguments = Namespace(data_dir='../../kdd_data/', data_prefi
…
